mnist_numbers_model.pkl (torch_old, 31954 bytes, 2 tensors)

linear.weight f4 [10, 784]
000000 80 32 04 bb 68 5a df 3c fe 63 91 bc d2 10 d0 3c
       -0.0020171702 0.027264789 -0.017747875 0.025398646
000010 85 ae 05 bc f4 c5 f0 3b 6a ea 9e bc fd 10 e2 3a
       -0.0081592845 0.0073478166 -0.019398887 0.0017247495
000020 7f 8b ce 3b ad 7f 63 bc 79 3b b1 39 89 09 0a 3c
       0.0063032503 -0.013885421 0.0003380438 0.008425125
000030 ed 28 9f bc 59 d4 81 bb f7 31 7a 3c 4d 39 d4 bc
       -0.019428695 -0.0039620814 0.015270702 -0.02590623
000040 58 b5 15 bc cb 5f 3c 3a 44 cd e9 3c 5a 60 97 3c
       -0.009137474 0.0007185905 0.028540261 0.018478561
000050 10 48 be bc fc e5 9f 3c 54 f1 02 bd 80 d4 89 bc
       -0.023227721 0.019518845 -0.03196843 -0.01682496
000060 a8 15 83 bc 7a 46 83 3b e2 a4 aa 3b c0 c3 af bc
       -0.016001537 0.004006204 0.005207644 -0.021455646
000070 09 66 7f bc 1a ea 24 bd 42 38 d0 3c b8 7e 6e 3c
       -0.015588292 -0.04026232 0.02541745 0.014556579
000080 c1 c9 2a bc 5c d1 0d bd df d8 ce bc f5 36 a8 bb
       -0.010424078 -0.03462349 -0.025249897 -0.0051335045
000090 3f bf 88 bc 7a 48 30 bc 5b e7 e2 3c 61 19 cd 3a
       -0.016692756 -0.010759467 0.02769821 0.0015647822
0000a0 99 77 d7 3a 1f f9 eb bc f8 50 e1 bc 1e f9 33 bc
       0.0016438841 -0.028805314 -0.02750443 -0.010984687
0000b0 83 03 0c bd 10 b7 64 3b 64 75 f2 bc b4 b6 bb 3c
       -0.034183037 0.0034899153 -0.029596992 0.022914268
0000c0 4b ef 01 bd 1c d7 22 3c 8d f3 52 bc ea 56 0e bd
       -0.03172235 0.009938981 -0.01287545 -0.034750856
0000d0 99 f4 91 bc d8 b3 12 bd 9f df fa 3b fe 98 ab bb
       -0.017816829 -0.035816044 0.0076560522 -0.005236744
0000e0 3a d9 ba 3c 09 ce 75 3a de 21 70 b9 80 3f 7d 3b
       0.02280866 0.000937671 -0.000229008 0.0038642585
0000f0 5a 0b 3e bc c7 bb cf 3c 92 e5 1f 3b 04 b2 25 3c
       -0.011599386 0.025358094 0.002439831 0.010113243
000100 a1 76 31 bc 4e 76 86 bc 9b a1 1c 3c e3 86 45 bb
       -0.010831506 -0.016413834 0.009560014 -0.0030140213
000110 57 33 2e bc 82 8b c8 ba 8b 0c 0c bd 46 01 2c bc
       -0.010632358 -0.0015300366 -0.03419165 -0.0104983505
000120 9d 0d 80 ba b3 f5 c7 bc 09 9a 3d 3c 26 c5 e6 bc
       -0.0009769682 -0.02440915 0.011572369 -0.02817018
000130 74 f7 97 3c 9d d2 cb 3c 95 f1 49 3c 78 57 9c 3c
       0.018550612 0.024880702 0.012325664 0.019084677
000140 1a 85 0f bd e9 61 34 3b 02 ca c7 3c f3 67 ad bc
       -0.035039045 0.002752418 0.024388317 -0.02116773
000150 8d 5e 22 bd 56 53 a8 3c f1 fe eb bc b9 4a 6d 3b
       -0.039640952 0.02054755 -0.028808089 0.0036207868
000160 69 1e c0 3c d9 a3 00 bd 42 b7 2b bd 26 1a ef bc
       0.023452 -0.031406257 -0.041922815 -0.029187273
000170 22 f3 d0 3a 5d 22 be bb 95 ef 08 3c de 65 7d 3c
       0.00159416 -0.0058024363 0.008357902 0.015466182
000180 8e 73 09 bc 99 18 00 3b ae 57 5b bd 03 fe 85 bc
       -0.008389367 0.0019545911 -0.053550415 -0.016356474
000190 fc d2 71 bc 1c f3 ee bc 42 d4 b9 bc 45 ad ba bc
       -0.014759775 -0.029168658 -0.02268422 -0.0227877
0001a0 1b 41 53 3c e6 c3 3e bd 20 1b 86 bc b1 d2 b1 bc
       0.01289394 -0.046573542 -0.016370356 -0.02170691
0001b0 6f df 10 3c 50 96 79 3b f7 75 9f 3c ce c4 c2 3c
       0.008842333 0.0038083978 0.01946543 0.023775484
0001c0 39 95 1b bc 78 54 8d 3c 02 54 d5 bc fa ec 25 bd
       -0.009496027 0.017252192 -0.026041035 -0.0405092
0001d0 a3 a7 f6 3c 20 3f 42 3c 94 29 d4 bc c8 8b 35 bd
       0.030109232 0.0118558705 -0.025898732 -0.04432276
0001e0 8c d9 13 bd 73 6c 2e bc ab fa 40 bd 81 8d 67 bb
       -0.03609614 -0.0106459735 -0.047114056 -0.0035332146
0001f0 7d 04 80 bc 36 f6 e5 3c 28 fd 96 bc ea 14 e4 3c
       -0.01562714 0.028071504 -0.018431261 0.027842004
000200 50 dc 40 3c e9 93 dd bc d5 fe b8 bb e5 b2 64 bc
       0.011771277 -0.027048068 -0.0056456127 -0.013958667
000210 30 28 d0 39 3c 0a 38 bd b3 87 de bc e0 20 33 bd
       0.00039702794 -0.044931635 -0.027164316 -0.043732524
000220 b7 fa 8c 3c 87 18 9c bc 78 7b 3b 3a 64 69 3f 3c
       0.017209394 -0.019054664 0.0007151882 0.011682842
000230 6f 42 04 bb 52 77 ce 3c b9 0e 9f bc 07 9a 97 bc
       -0.00201812 0.02520338 -0.0194162 -0.018506063
000240 ff fb d0 3c 6e 8c 74 3c b1 b8 b5 bc c9 35 32 bd
       0.025510786 0.014926059 -0.022182794 -0.043508325
000250 88 97 d9 bc eb ef 38 bd 57 4d 17 bd ec 65 94 bc
       -0.026561514 -0.04515068 -0.03693899 -0.018115006
000260 ac ee 0d bc 27 83 3b 3d 7f 09 3f 3d 9b 4c f0 3c
       -0.008662861 0.045779373 0.046639916 0.029333403
000270 db bb b9 3d ad 71 09 3d 62 0a cd 3c f7 a0 ac 3c
       0.09069034 0.033555675 0.025029365 0.021072848
000280 a5 8d e6 bc 76 c1 8c 3c 33 fe 95 bc 59 73 86 bc
       -0.028143713 0.017182093 -0.018309688 -0.016412424
000290 7d 1d 73 bc 2e 15 bf 3c 0c 02 cc 3c f7 37 10 bd
       -0.0148385735 0.023325529 0.02490332 -0.035209622
0002a0 1a f5 f8 3c 08 c1 f0 bc fc f9 0e bd 0e 73 e6 bc
       0.030390311 -0.02938892 -0.034906372 -0.028131034
0002b0 ce 19 90 ba e6 b5 a7 3b 65 0a 8f 3c b8 10 9d bc
       -0.0010994019 0.0051181195 0.017461011 -0.019173011
0002c0 6d 90 d0 3a ed 0c f2 bc 87 0c 8a 39 60 de 8f bc
       0.0015912183 -0.02954718 0.00026330745 -0.017562091
0002d0 c0 5d b5 3a 64 d2 5a 3d 2a 95 2f 3d 3d 33 c1 3d
       0.0013837144 0.0534233 0.042866863 0.09433601
0002e0 e0 c0 54 3d 05 40 6e 3d 8a b1 89 3d 69 69 db 3c
       0.051941752 0.058166523 0.06723316 0.026783662
0002f0 99 5b 60 ba a0 a8 21 3d a8 1b 8d bc 6c 77 20 bc
       -0.0008558571 0.039467454 -0.017225102 -0.009794097
000300 7c 83 26 bd 5c 0a 93 3c 87 72 62 3c 45 d7 91 bc
       -0.040652737 0.017949276 0.013821251 -0.017802844
000310 96 15 cb 3c 84 c0 52 3c 98 02 54 bb f3 e5 f4 bc
       0.024790566 0.012863282 -0.0032350179 -0.029894805
000320 f7 0e fc bc b4 3d 59 bc cf 27 23 bd 7d 17 43 bd
       -0.030768855 -0.01325934 -0.039832886 -0.047629822
000330 ce e4 83 bc 4b cf 98 3a f2 57 75 bc 5b d9 07 bb
       -0.016100314 0.0011658458 -0.014974581 -0.002072892
000340 ec a0 45 3d 40 7f 3d bb ae 61 63 3d fe 8b a1 3c
       0.04824917 -0.0028914958 0.055513076 0.019720074
000350 07 66 90 3d a1 4e f4 3d 5c 8f db 3d f8 22 23 3d
       0.0705071 0.1192906 0.10720703 0.03982827
000360 56 cb 02 3d ee 9f ec 3c e9 aa b3 3c 02 80 d5 bc
       0.031932198 0.028884854 0.021932082 -0.026062015
000370 fb da e4 bb cb 5b 3a bd 26 21 8f bc 3d 85 c6 bc
       -0.0069841123 -0.045497697 -0.017471861 -0.024233455
000380 8c fc 24 bd 6e 1e a7 bc 81 f8 2d 3c 77 83 4a 3c
       -0.04027991 -0.020400252 0.01061833 0.012360445
000390 7c 14 9d bb d9 62 0f bb c2 d3 56 bc 9f c9 04 bd
       -0.0047937017 -0.0021878986 -0.01311201 -0.032418843
0003a0 ee f5 12 bd e6 51 04 bd 86 78 c0 3b 95 e3 de 3b
       -0.035879068 -0.032304667 0.0058737425 0.0068020322
0003b0 5b 14 1d 3d 38 0a 30 3c 79 2f 2b 3d 3e bd ac 3d
       0.03834949 0.010744624 0.04179332 0.084345326
0003c0 f9 d3 5a 3d cc b9 ae 3d 0b d4 b4 3d 04 91 4a 3d
       0.05342481 0.08531532 0.088295065 0.049454704
0003d0 d4 59 32 3d 26 73 ca 3b 64 70 75 3d 38 9d fd 3c
       0.043542698 0.0061782775 0.059921637 0.030958757
0003e0 7b 83 4c 3b fc fa 02 3c d6 7b 11 bd 33 06 27 3c
       0.0031206298 0.00799441 -0.03551849 0.010194349
0003f0 28 bf 12 bd 34 12 00 bc 20 09 31 bc e3 2a 54 bc
       -0.035826832 -0.00781684 -0.010805398 -0.012949678

linear.bias f4 [10]
000000 44 1f 7f 3a 37 93 3a 3c e3 89 bb 3b cc 44 fd 3c
       0.0009732137 0.011387638 0.0057232245 0.030916594
000010 51 6b 17 bd 0b 19 c2 bb 96 d5 a5 bc e2 77 f8 3c
       -0.03696758 -0.0059233955 -0.020243447 0.030330602
000020 64 c9 27 3d 16 3b 1f bd
       0.040963545 -0.038874708
